…
2025-01-14 21:32:59,584 - INFO - Layer input_embedding.branch3.bias: Shape torch.Size([64])
2025-01-14 21:32:59,584 - INFO - Layer input_embedding.branch7.weight: Shape torch.Size([64, 16, 7])
2025-01-14 21:32:59,584 - INFO - Layer input_embedding.branch7.bias: Shape torch.Size([64])
2025-01-14 21:32:59,584 - INFO - Layer input_embedding.fuse.weight: Shape torch.Size([64, 192, 1])
2025-01-14 21:32:59,584 - INFO - Layer input_embedding.fuse.bias: Shape torch.Size([64])
2025-01-14 21:32:59,585 - INFO - Total trainable parameters: 4565144

2025-01-14 21:32:59,585 - INFO - Model Summary: 
 BrainMamba2_multibranch(
  (input_embedding): MultiBranchInputEmbedding(
    (branch1): Conv1d(16, 64, kernel_size=(1,), stride=(1,))
    (branch3): Conv1d(16, 64, kernel_size=(3,), stride=(1,), padding=(1,))
    (branch7): Conv1d(16, 64, kernel_size=(7,), stride=(1,), padding=(3,))
    (fuse): Conv1d(192, 64, kernel_size=(1,), stride=(1,))
  )
  (encoder1): Sequential(
    (0): Linear(in_features=64, out_features=64, bias=True)
    (1): SelfSupervisedMambaModel(
      (mamba): Mamba2(
        (in_proj): Linear(in_features=64, out_features=1064, bias=False)
        (conv1d): Conv1d(544, 544, kernel_size=(2,), stride=(1,), padding=(1,), groups=544)
        (act): SiLU()
        (norm): RMSNorm()
        (out_proj): Linear(in_features=512, out_features=64, bias=False)
      )
      (norm): LayerNorm((64,), eps=1e-05, elementwise_affine=True)
    )
  )
  (pool1): MaxPool1d(kernel_size=2, stride=2, padding=0, dilation=1, ceil_mode=False)
  (encoder2): Conv1d(64, 128, kernel_size=(3,), stride=(1,), padding=(1,))
  (pool2): MaxPool1d(kernel_size=2, stride=2, padding=0, dilation=1, ceil_mode=False)
  (encoder3): Conv1d(128, 256, kernel_size=(3,), stride=(1,), padding=(1,))
  (pool3): MaxPool1d(kernel_size=2, stride=2, padding=0, dilation=1, ceil_mode=False)
  (bottleneck): Sequential(
    (0): Linear(in_features=256, out_features=256, bias=True)
    (1): SelfSupervisedMambaModel(
      (mamba): Mamba2(
        (in_proj): Linear(in_features=256, out_features=4160, bias=False)
        (conv1d): Conv1d(2080, 2080, kernel_size=(2,), stride=(1,), padding=(1,), groups=2080)
        (act): SiLU()
        (norm): RMSNorm()
        (out_proj): Linear(in_features=2048, out_features=256, bias=False)
      )
      (norm): LayerNorm((256,), eps=1e-05, elementwise_affine=True)
    )
    (2): Linear(in_features=256, out_features=256, bias=True)
  )
  (decoder3): Conv1d(512, 256, kernel_size=(3,), stride=(1,), padding=(1,))
  (decodeMamba3): SelfSupervisedMambaModel(
    (mamba): Mamba2(
      (in_proj): Linear(in_features=256, out_features=4160, bias=False)
      (conv1d): Conv1d(2080, 2080, kernel_size=(2,), stride=(1,), padding=(1,), groups=2080)
      (act): SiLU()
      (norm): RMSNorm()
      (out_proj): Linear(in_features=2048, out_features=256, bias=False)
    )
    (norm): LayerNorm((256,), eps=1e-05, elementwise_affine=True)
  )
  (decoder2): Conv1d(384, 128, kernel_size=(3,), stride=(1,), padding=(1,))
  (decodeMamba2): SelfSupervisedMambaModel(
    (mamba): Mamba2(
      (in_proj): Linear(in_features=128, out_features=2096, bias=False)
      (conv1d): Conv1d(1056, 1056, kernel_size=(2,), stride=(1,), padding=(1,), groups=1056)
      (act): SiLU()
      (norm): RMSNorm()
      (out_proj): Linear(in_features=1024, out_features=128, bias=False)
    )
    (norm): LayerNorm((128,), eps=1e-05, elementwise_affine=True)
  )
  (decoder1): Conv1d(192, 64, kernel_size=(3,), stride=(1,), padding=(1,))
  (onput_embedding): Conv1d(64, 16, kernel_size=(1,), stride=(1,))
)

2025-01-14 21:32:59,585 - INFO - Training start.
2025-01-16 23:14:56,618 - INFO -  - Channel 1 MSE: 4.702180918941812e-12
2025-01-16 23:14:56,618 - INFO -  - Channel 2 MSE: 8.408578520968657e-12
2025-01-16 23:14:56,618 - INFO -  - Channel 3 MSE: 1.0459334787160657e-11
2025-01-16 23:14:56,618 - INFO -  - Channel 4 MSE: 7.672565707772527e-12
2025-01-16 23:14:56,618 - INFO -  - Channel 5 MSE: 3.512409807449046e-11
…
